data.pth (torch, 12714 bytes, 6 tensors)

l1.weight f4 [8, 213]
00000000: 2e19 e13e b19a 9dbd be7d 363e fc3f 1f3e
00000010: 9422 213e eec8 e63e 7153 5fbd 3ba0 9dbe
00000020: 0545 c93e d3c1 77be dd21 99bd 0148 53be
00000030: 8740 2fbe 5210 773e 3f1f 853f 71b9 e83d
00000040: 09c1 8f3e c737 b83e 302c 663e 27e8 213e
00000050: 06ad 9dbe ba67 963e a19b b23e 611b ebbc
00000060: 46e4 b43e 3290 9b3e 3831 e9be 21f3 00be
00000070: 1189 04bf 1520 273e a10c 16be 3a73 903e
00000080: cc38 da3d 4a5b 27be b18f 3d3e cae4 573e
00000090: 20bd 813e b6a7 643e 1231 253e 898b 6ebe
000000a0: 40c9 d0be 0b6b 5c3e bcdf 71ba 3831 b1be
000000b0: 914d 803e 8668 3d3e 62dd 7e3d ba35 59be
000000c0: 0fcd aa3e e26f db3c 0e3d 0a3e bea9 c23e
000000d0: 35ce 6e3e 90eb 5c3e d16e 1fbe db1d 233e
000000e0: 2325 8ebc 47da 3d3e 735b 943e 38d0 36be
000000f0: 8652 cabc 8768 c6be 2401 213e d421 073e
00000100: f3fd 483e 12f7 09be cd8b 10be 543e d03d
00000110: 1186 9dbe a186 d53d 003f f83e 73c2 473e
00000120: 06c4 c63e dbe6 283e 8140 ac3d 73ab 6dbe
00000130: be34 0f3e 4c13 bd3e 9073 4c3e 871a 0dbe
00000140: 1ae6 32bf 57d9 753f f104 b03e ee4f 4cbe
00000150: 250f 603e 7968 ff3e b3f7 663f ca90 533f
00000160: ef6c 563f b289 0b3d cdde ff3d c907 ae3e
00000170: d588 833e 7e58 49be 588c 5a3e 3f50 683f
00000180: d0d0 473e a4a1 f03e 5c2a 523e 3862 223d
00000190: 68bf a73d c144 cb3d 71ea ac3e f0b8 ce3e
000001a0: 3482 513e bc5a 36be 466c 433e 50d6 bbbe
000001b0: 207e c9bc dbe0 a3bd 04a1 9d3e fad4 ab3d
000001c0: 1afe e23d d3c4 8d3e 1869 ac3e e97b 0f3e
000001d0: 7fe7 c43e 7246 15bf bf72 f23d efab b63e
000001e0: 676f 0a3e 3ff8 d4bc d13f 543e 45c3 e73d
000001f0: 7df8 9a3e 5226 91be ad50 d93e b15b fd3e
00000200: 2eb0 883e 3202 693e af50 b8be 5dcf 48be
00000210: b04b 8f3e 4836 5c3e bd66 fd3e 10ec cebe
00000220: b686 4e3e a75e 1abe 810a 8c3d a46c 383e
00000230: 2ca6 7a3e f654 64be 89f4 71be 1e35 92be
00000240: 26e2 e33e ece2 2d3e 7da1 573e df74 093e
00000250: a636 343f 29a2 973e d7b0 f13d 62a5 dcbe
00000260: a21f a53e 4bd7 ca3d d59d 013e 4493 10be
00000270: 7a67 8c3c 9edb 313e 8e3e 72be ca11 3abe
00000280: 7487 d13e 079a 9a3e a731 763f 2dc9 083e
00000290: d734 dcbd 3dd5 b03e 0ee4 723e 731b 823f
000002a0: 99e0 553e a61c 973e 60f7 2b3e 286e cf3e
000002b0: b004 c03e aea4 3d3e 496e 8f3d 32b1 493e
000002c0: f481 0c3e aed0 513f 580b 983e 81dc 453f
000002d0: 8741 933e b757 37be ad8a b53e 527b 023f
000002e0: 8309 5d3e eacb 063f 36cd 763e 4761 ca3e
000002f0: be7c 4c3e ffdb 0ebd b853 ca3d 0e67 da3d
00000300: 540d 093f 4ea3 a83e 4790 e13d ba5f 163e
00000310: 6252 b63d 24b9 633e 776a cbbe 9c7b fdbc
00000320: 2b7c e63e 965f 3b3e 44b1 c8be 26f2 073e
00000330: 01c4 953e 9b1e 943e 3420 1f3e cd8b 853e
00000340: bf3e 1c3f 3eed a33e 3b0a 433e c2a9 bb3e
00000350: 8f21 ff3d 3715 d1be 6dbd 4a3e 7dee f43d
00000360: 31ab f73d f812 eb3d 9770 d8be e57c ff3e
00000370: f9b3 213e 8d3e eebe c66a 3b3e 2c79 583e
00000380: 77c9 6e3e da51 c13e c32c 263f 0f53 5fbf
00000390: a0f7 f93c f643 b53d 27ef 043e ae54 083f
000003a0: 036d de3e 1756 2ebf 6ef2 563e 5e75 9e3e
000003b0: 7b5b d5bd a17a b33e cd5d a13e 8670 bebe
000003c0: adb2 403e e8a1 1bbc a88c 3d3e f05a 213e
000003d0: 9476 773e 216e ac3d 9a19 55be b64b 923e
000003e0: fd7e aebe e245 0f3e 1dfa 4c3e 3337 1cbe
000003f0: 2ddc 483e 83e4 a7be a9f4 8ebd 3953 c1bd
0.43964523 -0.07695521 0.17821404 0.15551752 0.15735847 0.45075172 -0.054522935 -0.3078631
0.3931047 -0.24195032 -0.07477162 -0.20632936 -0.17114459 0.2412732 1.040016 0.11363495
0.28076962 0.35980055 0.22477794 0.15811215 -0.3079607 0.29376012 0.3488436 -0.028699579
0.3533041 0.3038345 -0.45545363 -0.12592746 -0.51771647 0.16320832 -0.14653255 0.2821291
0.106553644 -0.16343418 0.18511845 0.2108337 0.25339603 0.22329602 0.16132 -0.23295416
-0.40778542 0.21525209 -0.00092267594 -0.34607863 0.25059178 0.18496904 0.062222846 -0.21211901
0.33359572 0.026786748 0.13499853 0.38020128 0.23320849 0.21574235 -0.15569617 0.15929358
-0.017351693 0.18540297 0.2897602 -0.17852867 -0.024697553 -0.38751623 0.15723091 0.13196498
0.19628124 -0.13473156 -0.1411583 0.10168138 -0.30766347 0.10426069 0.48485565 0.1950777
0.3882143 0.16494314 0.08410741 -0.23209934 0.13984963 0.36928785 0.19965959 -0.1377965
-0.6988236 0.9603476 0.3437877 -0.19952366 0.21880777 0.49884394 0.9022171 0.82642806
0.8375997 0.034066863 0.12493668 0.33990315 0.25690332 -0.19662663 0.213426 0.90747446
0.1951325 0.46998322 0.20523971 0.03964445 0.08190805 0.09925223 0.33772615 0.4037547
0.20459825 -0.1780805 0.19084272 -0.36686945 -0.024596274 -0.08001872 0.30786908 0.083902314
0.11083622 0.27689227 0.3367393 0.14012112 0.38457868 -0.58310616 0.11838292 0.3567805
0.13519059 -0.02599728 0.20727469 0.113165416 0.30267707 -0.2834955 0.42444363 0.49484017
0.26696914 0.22754744 -0.35999057 -0.19610353 0.27987432 0.21505082 0.49492446 -0.40414476
0.20168576 -0.1507517 0.06837941 0.18010193 0.24477452 -0.22298035 -0.23628439 -0.2855615
0.44508475 0.16981095 0.21057697 0.13423489 0.70395887 0.29615906 0.11801308 -0.43094927
0.32250696 0.09904345 0.12657864 -0.14118677 0.017139185 0.17368934 -0.23656675 -0.18170848
0.40923655 0.3019564 0.96169513 0.13357992 -0.10752266 0.34537688 0.23719808 1.0164627
0.20886458 0.29514045 0.16793585 0.4051373 0.37503576 0.18519852 0.07003457 0.19696501
0.13721448 0.81959045 0.29696155 0.7728959 0.2876093 -0.17904554 0.35457364 0.5096942
0.2158566 0.526549 0.2410172 0.39527342 0.1996946 -0.034877773 0.09879249 0.10664187
0.5353596 0.32937092 0.11013847 0.14684954 0.08902432 0.22238594 -0.39729664 -0.03094273
0.45016608 0.18298182 -0.39197743 0.13275966 0.29251102 0.289296 0.15539628 0.26083222
0.6103324 0.3201694 0.19046871 0.36652952 0.12457573 -0.40836498 0.19798823 0.119595505
0.12093199 0.114782274 -0.422734 0.49899974 0.1579131 -0.46532097 0.1830245 0.21139973
0.2331904 0.3775776 0.6491205 -0.8723611 0.030513585 0.08850853 0.12981854 0.5325421
0.43442544 -0.6810011 0.20990917 0.3094892 -0.10417839 0.35054496 0.31516877 -0.37195224
0.1881816 -0.009499051 0.18510687 0.15757346 0.24166328 0.08419443 -0.20810547 0.28573388
-0.3408126 0.13991502 0.20017286 -0.15255432 0.1961524 -0.32791528 -0.06980259 -0.094397016

l1.bias f4 [8]
00000000: 5556 2f3f f034 8a3f bc17 2f3f 5b4a 1c3f
00000010: affe 9d3e c00f 9c3f 6972 ca38 a638 7b3f
0.6849111 1.0797405 0.6839559 0.6105096 0.3085837 1.2192307 9.653421e-05 0.98133314

l2.weight f4 [8, 8]
00000000: 2c4c 703e 81a7 74bf a6d3 c43f 05b2 a13f
00000010: 5730 a63f 90ea 063f 8019 963a 591a 163f
00000020: dd9d 77bf 151f 263f 083a 7a3e e457 9a3f
00000030: 64e9 423f 423e 7f3f 1ce8 9cbf 9d97 873f
00000040: fed8 cd3f 586b c2bf be1a 653f 0b03 82bf
00000050: 9a6d 9ebf 5240 4c3f 45ed e83e d27b 3dbf
00000060: f7e7 993f 3adf c63f bd6d 00c0 3801 b7bc
00000070: c8f3 263f c6ea 423f 84e0 30bf a507 a5bf
00000080: 5064 3cbf 1c6d 223d 2e93 983f 15e8 983f
00000090: 3407 3c3f 4232 513f 9e03 86bf 71e5 813f
000000a0: 6da5 133e 4e4e ad3f 3e11 1c3f 8ed9 223f
000000b0: 65e5 cebe a7d6 d6be c935 c13f 2b5f fa3f
000000c0: 62eb 013f ada9 273f b506 763f 4ed1 7f3e
000000d0: 3777 983f ce52 913e 4b1e d93f a3af 97bf
000000e0: 6114 8e3f 445d 9a3f a751 9bbe 175f 86bd
000000f0: 7e38 9abf aefd c93f d8a2 d3be 6f8f 883f
0.23466557 -0.9556809 1.537709 1.2632452 1.2983502 0.52701664 0.0011451691 0.58633953
-0.96725255 0.6489118 0.244362 1.2058072 0.76137376 0.9970437 -1.2258334 1.0593144
1.6081846 -1.5189009 0.8949393 -1.0157179 -1.2377198 0.79785645 0.45493522 -0.7401706
1.2023915 1.5536873 -2.006698 -0.022339448 0.6521573 0.76139486 -0.69092584 -1.2892958
-0.73590565 0.039654836 1.1919916 1.1945826 0.7344849 0.8171731 -1.0469854 1.0148145
0.14418574 1.3539522 0.6096381 0.6361321 -0.4040939 -0.41960642 1.5094539 1.9560293
0.5074979 0.6549328 0.96103984 0.24982187 1.1911381 0.28383487 1.696237 -1.1850475
1.1099969 1.2059712 -0.30335733 -0.06561106 -1.204849 1.5780542 -0.41335177 1.0668772

l2.bias f4 [8]
00000000: 9d48 863e 941e c33e 0a8d 583f 7745 723f
00000010: 3d3f d33e c89c 4c3e 6852 34bf 21a6 3c3f
0.26227275 0.38109267 0.8459021 0.94637245 0.41259184 0.19981682 -0.7043824 0.7369099

l3.weight f4 [10, 8]
00000000: e8e7 21bf 52a0 4cbd ac6c 01c0 b9c4 ee3e
00000010: 3a89 8d3c b364 a7bf 5e73 913e 520a 6dbd
00000020: 5eb1 aabb 2c39 ed3e 6749 a0bf b66e be3e
00000030: 050d 803e 4c26 a2be 1c73 e2bd 4714 fdbf
00000040: a0c9 0fbf bec0 86bf 7be2 eebf 9702 113f
00000050: ef43 92bf 8409 723e 0abc 1d3f cb0e 86bf
00000060: bd06 323e 7e27 8cbf f894 363f 8a4b d5bf
00000070: a8dc 3e3d dd42 afbc 3b5b b8bc f72b 42be
00000080: 8737 373f 4868 f43e 2aa4 e3bf b12e 8abf
00000090: 4e33 ef3e f66d c8bf b66f a53d 6323 86bf
000000a0: 76ed 34bf ca7c c7bf b18e 403f 6d77 d43e
000000b0: 813a c5bf f64e f7bf 38ba 95bf 9199 5c3e
000000c0: 5a87 01be bb86 65bd 35d0 ddbf 9534 acbf
000000d0: 1cbb d63d 19b4 2a3f 1a5a 133f f2f4 b5bf
000000e0: c793 92be 8d5d 843f 73fd 07c0 deba 7fbf
000000f0: c5e3 8f3f b706 1c3f 6b23 c4bf ee88 c63e
00000100: 7a0c dbbf 1755 adbf b7a5 aabf 29ad 32bf
00000110: 7723 9ebf 09d7 1b3f 0519 af3e 5a78 023f
00000120: af88 80c0 7909 08be 5e1e 26bf baab 983f
00000130: e1d4 cebe 85c4 00bd a8fe 4bbf 1fe6 393f
-0.63244486 -0.04995758 -2.0222578 0.46634462 0.017277349 -1.3077606 0.2840833 -0.05787117
-0.005209132 0.4633268 -1.2522401 0.3719384 0.25009933 -0.31669843 -0.110571116 -1.9771813
-0.5616703 -1.052757 -1.8662866 0.56644577 -1.1426982 0.23636442 0.6161505 -1.0473264
0.17385383 -1.0949552 0.7132106 -1.6663678 0.046597153 -0.021394188 -0.02250444 -0.18962084
0.71569103 0.4773581 -1.7784474 -1.0795499 0.4671883 -1.5658557 0.08077948 -1.0479549
-0.70674837 -1.5584958 0.7521773 0.41497365 -1.5408479 -1.9320972 -1.1697454 0.21542956
-0.12649289 -0.056036692 -1.7329165 -1.3453547 0.10484907 0.6668106 0.5755936 -1.4215376
-0.2862837 1.034105 -2.1248443 -0.9989451 1.1241385 0.60947746 -1.5323309 0.38776344
-1.7113183 -1.3541592 -1.3331822 -0.6979547 -1.2354573 0.6087499 0.34198776 0.5096489
-4.016685 -0.13284864 -0.64890087 1.1927407 -0.4039679 -0.031437416 -0.7968545 0.7261676

l3.bias f4 [10]
00000000: 6910 12bf d7fe 1fbf f5b4 80be a5dc 923e
00000010: 7344 8ebd 7edc bd3e 3c9f ebbe db7a 6cbd
00000020: 3a8a d3be 5414 243f
-0.5705629 -0.6249823 -0.2513806 0.28683963 -0.069466494 0.37082285 -0.46019924 -0.05773435
-0.41316396 0.6409352
